
 LeedsNet < New Attempts Next> : Results when LeedsNet2 was trained on My civil dataset dataset 


 Network architechture 

____________________________________________________________________________________________________
Layer (type)                     Output Shape          Param #     Connected to                     
====================================================================================================
convolution2d_1 (Convolution2D)  (None, 98, 98, 16)    448         convolution2d_input_1[0][0]      
____________________________________________________________________________________________________
dropout_1 (Dropout)              (None, 98, 98, 16)    0           convolution2d_1[0][0]            
____________________________________________________________________________________________________
convolution2d_2 (Convolution2D)  (None, 96, 96, 32)    4640        dropout_1[0][0]                  
____________________________________________________________________________________________________
dropout_2 (Dropout)              (None, 96, 96, 32)    0           convolution2d_2[0][0]            
____________________________________________________________________________________________________
maxpooling2d_1 (MaxPooling2D)    (None, 48, 48, 32)    0           dropout_2[0][0]                  
____________________________________________________________________________________________________
flatten_1 (Flatten)              (None, 73728)         0           maxpooling2d_1[0][0]             
____________________________________________________________________________________________________
dense_1 (Dense)                  (None, 256)           18874624    flatten_1[0][0]                  
____________________________________________________________________________________________________
dropout_3 (Dropout)              (None, 256)           0           dense_1[0][0]                    
____________________________________________________________________________________________________
dense_2 (Dense)                  (None, 6)             1542        dropout_3[0][0]                  
====================================================================================================
Total params: 18881254
____________________________________________________________________________________________________
None

 Results: Colomn headings 
 dict_keys(['acc', 'val_acc', 'loss', 'val_loss'])

 Results: Training 
 {'acc': [… 'val_acc': [… 'loss': [… 'val_loss': [… Time taken for training 
…
