
 LeedsNet < New Attempts No.1> : Results when LeedsNet was trained on humanvsanimal dataset 


 Network architechture 

____________________________________________________________________________________________________
Layer (type)                     Output Shape          Param #     Connected to                     
====================================================================================================
convolution2d_1 (Convolution2D)  (None, 30, 30, 16)    448         convolution2d_input_1[0][0]      
____________________________________________________________________________________________________
dropout_1 (Dropout)              (None, 30, 30, 16)    0           convolution2d_1[0][0]            
____________________________________________________________________________________________________
convolution2d_2 (Convolution2D)  (None, 28, 28, 32)    4640        dropout_1[0][0]                  
____________________________________________________________________________________________________
dropout_2 (Dropout)              (None, 28, 28, 32)    0           convolution2d_2[0][0]            
____________________________________________________________________________________________________
maxpooling2d_1 (MaxPooling2D)    (None, 14, 14, 32)    0           dropout_2[0][0]                  
____________________________________________________________________________________________________
flatten_1 (Flatten)              (None, 6272)          0           maxpooling2d_1[0][0]             
____________________________________________________________________________________________________
dense_1 (Dense)                  (None, 256)           1605888     flatten_1[0][0]                  
____________________________________________________________________________________________________
dropout_3 (Dropout)              (None, 256)           0           dense_1[0][0]                    
____________________________________________________________________________________________________
dense_2 (Dense)                  (None, 2)             514         dropout_3[0][0]                  
====================================================================================================
Total params: 1611490
____________________________________________________________________________________________________
None

 Results: Colomn headings 
 dict_keys(['val_loss', 'val_acc', 'acc', 'loss'])

 Results: Training 
 {'val_loss': [… 'val_acc': [… 'acc': [… 'loss': [… Time taken for training 
…
