


 LeedsNet <Attempt 3> : Results when LeedsNet was trained using MNIST dataset 

____________________________________________________________________________________________________
Layer (type)                     Output Shape          Param #     Connected to                     
====================================================================================================
convolution2d_1 (Convolution2D)  (None, 16, 30, 30)    448         convolution2d_input_1[0][0]      
____________________________________________________________________________________________________
dropout_1 (Dropout)              (None, 16, 30, 30)    0           convolution2d_1[0][0]            
____________________________________________________________________________________________________
convolution2d_2 (Convolution2D)  (None, 32, 28, 28)    4640        dropout_1[0][0]                  
____________________________________________________________________________________________________
dropout_2 (Dropout)              (None, 32, 28, 28)    0           convolution2d_2[0][0]            
____________________________________________________________________________________________________
maxpooling2d_1 (MaxPooling2D)    (None, 32, 14, 14)    0           dropout_2[0][0]                  
____________________________________________________________________________________________________
flatten_1 (Flatten)              (None, 6272)          0           maxpooling2d_1[0][0]             
____________________________________________________________________________________________________
dense_1 (Dense)                  (None, 256)           1605888     flatten_1[0][0]                  
____________________________________________________________________________________________________
dropout_3 (Dropout)              (None, 256)           0           dense_1[0][0]                    
____________________________________________________________________________________________________
dense_2 (Dense)                  (None, 10)            2570        dropout_3[0][0]                  
====================================================================================================
Total params: 1613546
____________________________________________________________________________________________________

 Network architechture 
 None

 Results: Training 
 {'val_acc': [… 'loss': [… 'val_loss': [… 'acc': [… LeedsNet <Attempt 3> : Results when LeedsNet was trained using MNIST dataset 

____________________________________________________________________________________________________
Layer (type)                     Output Shape          Param #     Connected to                     
====================================================================================================
convolution2d_1 (Convolution2D)  (None, 16, 30, 30)    448         convolution2d_input_1[0][0]      
____________________________________________________________________________________________________
dropout_1 (Dropout)              (None, 16, 30, 30)    0           convolution2d_1[0][0]            
____________________________________________________________________________________________________
convolution2d_2 (Convolution2D)  (None, 32, 28, 28)    4640        dropout_1[0][0]                  
____________________________________________________________________________________________________
dropout_2 (Dropout)              (None, 32, 28, 28)    0           convolution2d_2[0][0]            
____________________________________________________________________________________________________
maxpooling2d_1 (MaxPooling2D)    (None, 32, 14, 14)    0           dropout_2[0][0]                  
____________________________________________________________________________________________________
flatten_1 (Flatten)              (None, 6272)          0           maxpooling2d_1[0][0]             
____________________________________________________________________________________________________
dense_1 (Dense)                  (None, 256)           1605888     flatten_1[0][0]                  
____________________________________________________________________________________________________
dropout_3 (Dropout)              (None, 256)           0           dense_1[0][0]                    
____________________________________________________________________________________________________
dense_2 (Dense)                  (None, 10)            2570        dropout_3[0][0]                  
====================================================================================================
Total params: 1613546
____________________________________________________________________________________________________

 Network architechture 
 None

 Results: Training 
 {'val_acc': [… 'loss': [… 'val_loss': [… 'acc': [… Time taken for training 
  Start Time: 2017-02-09 13:10:25.986570 
 End Time: 2017-02-09 13:33:45.898785 


 LeedsNet <Attempt 3> : Results when LeedsNet was trained using MNIST dataset 

____________________________________________________________________________________________________
Layer (type)                     Output Shape          Param #     Connected to                     
====================================================================================================
convolution2d_1 (Convolution2D)  (None, 16, 30, 30)    448         convolution2d_input_1[0][0]      
____________________________________________________________________________________________________
dropout_1 (Dropout)              (None, 16, 30, 30)    0           convolution2d_1[0][0]            
____________________________________________________________________________________________________
convolution2d_2 (Convolution2D)  (None, 32, 28, 28)    4640        dropout_1[0][0]                  
____________________________________________________________________________________________________
dropout_2 (Dropout)              (None, 32, 28, 28)    0           convolution2d_2[0][0]            
____________________________________________________________________________________________________
maxpooling2d_1 (MaxPooling2D)    (None, 32, 14, 14)    0           dropout_2[0][0]                  
____________________________________________________________________________________________________
flatten_1 (Flatten)              (None, 6272)          0           maxpooling2d_1[0][0]             
____________________________________________________________________________________________________
dense_1 (Dense)                  (None, 256)           1605888     flatten_1[0][0]                  
____________________________________________________________________________________________________
dropout_3 (Dropout)              (None, 256)           0           dense_1[0][0]                    
____________________________________________________________________________________________________
dense_2 (Dense)                  (None, 10)            2570        dropout_3[0][0]                  
====================================================================================================
Total params: 1613546
____________________________________________________________________________________________________

 Network architechture 
 None

 Results: Training 
 {'loss': [2.1310886749267577, 1.9433866426467896, 1.8453323137283326, 1.780326371
…
2, 0.48039999999999999, 0.48809999999999998]} 


 Time taken for training 
  Start Time: 2017-02-09 13:40:53.649358 
 End Time: 2017-02-09 13:49:19.242281 


 LeedsNet <Attempt 3> : Results when LeedsNet was trained using MNIST dataset 


 Network architechture 

____________________________________________________________________________________________________
Layer (type)                     Output Shape          Param #     Connected to                     
====================================================================================================
convolution2d_1 (Convolution2D)  (None, 16, 30, 30)    448         convolution2d_input_1[0][0]      
____________________________________________________________________________________________________
dropout_1 (Dropout)              (None, 16, 30, 30)    0           convolution2d_1[0][0]            
____________________________________________________________________________________________________
convolution2d_2 (Convolution2D)  (None, 32, 28, 28)    4640        dropout_1[0][0]                  
____________________________________________________________________________________________________
dropout_2 (Dropout)              (None, 32, 28, 28)    0           convolution2d_2[0][0]            
____________________________________________________________________________________________________
maxpooling2d_1 (MaxPooling2D)    (None, 32, 14, 14)    0           dropout_2[0][0]                  
____________________________________________________________________________________________________
flatten_1 (Flatten)              (None, 6272)          0           maxpooling2d_1[0][0]             
____________________________________________________________________________________________________
dense_1 (Dense)                  (None, 256)           1605888     flatten_1[0][0]                  
____________________________________________________________________________________________________
dropout_3 (Dropout)              (None, 256)           0           dense_1[0][0]                    
____________________________________________________________________________________________________
dense_2 (Dense)                  (None, 10)            2570        dropout_3[0][0]                  
====================================================================================================
Total params: 1613546
____________________________________________________________________________________________________
None

 Results: Training 
 {'val_loss': [2.0905022972106932, 1.9826323249816895, 1.9025725288391113, 1.8594170654296875, 1.79213105087
…
